mnist/net.pkl (torch_old, 116828 bytes, 6 tensors)

conv1.0.weight f4 [16, 1, 5, 5]
-0.10261414 -0.13225222 -1.5164497 -16.80209 -16.740372 -0.21146972 -0.093483895 -1.1726635
-12.789645 -16.24441 -1.3268582 -0.12806748 -0.16591527 -0.3522229 -0.68416864 -0.20811915
-0.13007933 -0.09680206 -0.06760999 -0.30141973 -0.1515148 -0.07274254 -0.24972542 -0.36739314
-0.54444116 -0.31135353 -0.4749495 -0.6531739 -0.90823066 -0.92263365 -0.2109878 -0.3380398
-0.52737033 -0.80219835 -0.92412037 -0.3539212 -0.3494872 -0.6511746 -0.9415328 -0.9433985
-0.25908548 -0.4834833 -0.9789942 -0.8812547 -0.9381616 -0.51124984 -0.84963566 -0.83396953
-1.0798172 -0.9371442 -4830.521 -1994.6539 -186.54897 -58.15422 -65.230705 -5673.7344
-1597.7477 -35.664993 -5.4252844 -36.69112 -7340.9365 -2116.8428 -339.1393 -152.42288
-424.94647 -10589.323 -5828.7466 -2988.125 -2212.4548 -2391.0515 -13213.282 -10078.203
-7556.4683 -6074.3438 -5176.574 -0.6698794 -0.8347492 -0.7711837 -1.1034226 -0.8417504
-0.74968266 -0.8507531 -0.98198605 -0.8776855 -0.79221076 -0.8596224 -1.1158973 -1.2368978
-0.9579137 -0.91917163 -1.3734193 -1.6617234 -1.6301467 -1.31397 -1.1959337 -1.8083324
-1.967284 -1.8247077 -1.444915 -1.3392723 -0.16277464 -0.019680046 -0.2019044 -0.40284675
-0.25203085 -0.39824393 -0.31520835 -0.5462056 -0.3301788 -0.44270438 -0.75449187 -0.49969822
-0.37891483 -0.1699343 -0.17598742 -0.8284855 -0.61965495 -0.42825532 -0.21318346 -0.12995069
-0.62602425 -0.60672253 -0.17774388 -0.064749 -0.06275223 -13451.633 -14691.53 -14224.666
-12676.148 -11049.682 -14850.03 -15867.216 -14882.947 -12561.732 -11033.828 -15033.272
-15608.034 -14074.108 -11654.373 -10466.302 -14966.05 -14852.643 -12859.171 -11116.172
-10168.841 -14128.111 -13419.415 -11808.81 -10504.415 -9778.716 -0.4427511 -0.31138012
-0.038025122 -0.14920178 -0.07139648 -0.21526279 -0.13283852 -0.048914507 -0.8705655 -0.13209504
-0.22221296 -0.020328011 -1.7230749 -6.908214 -0.6026901 -0.14502563 -0.1796188 -0.08418174
-0.19462655 -0.044874717 -0.13510273 -0.075950734 -0.062039517 -0.21992852 -0.16172501 -0.15864895
-0.29113966 -0.41268682 -0.6278742 -0.5951172 -0.052124362 -0.17947032 -0.5683041 -0.65330184
-0.5926455 -0.16717894 -0.23222096 -0.631474 -0.614609 -0.6596753 -0.34887096 -0.42289189
-0.8445948 -0.765801 -0.5677788 -0.5624242 -0.7323877 -1.0665004 -0.88992363 -0.7621681
-1.2052916 -1.2904984 -1.0197139 -0.9087423 -0.75440425 -1.4042423 -1.3434565 -1.1619003
-1.2100209 -1.022586 -1.1657652 -1.0504243 -1.1379082 -1.0056013 -0.76058984 -0.6848223
-0.69667065 -0.6656025 -0.7819426 -0.5297854 -0.23138502 -0.3740533 -0.36805987 -0.3711909
-0.29341707 -0.6625639 -0.51090735 -0.49896216 -0.39376432 -1.2903103 -0.7193114 -0.6398
-0.4755699 -0.37214854 -27.531925 -0.7990423 -0.6162002 -0.45622948 -0.4007918 -46.56377
-0.7533223 -0.52276665 -0.38946503 -0.115048856 -8.248255 -0.6463284 -0.41137207 -0.41447884
-0.11675955 -0.6383358 -0.7932823 -0.804486 -0.72746676 -0.6188725 -0.6990517 -1.0786462
00000000: 5d27 d2bd 206d 07be 061b c2bf ae6a 86c1
00000010: 48ec 85c1 858b 58be 7c74 bfbd d619 96bf
00000020: 63a2 4cc1 8df4 81c1 7dd6 a9bf 1f24 03be
00000030: b1e5 29be 8f56 b4be ad25 2fbf 301d 55be
00000040: 8433 05be 2940 c6bd 1b77 8abd b053 9abe
00000050: b226 1bbe 0afa 94bd 05b8 7fbe f41a bcbe
00000060: 7f60 0bbf bb69 9fbe 952c f3be 6836 27bf
00000070: ce81 68bf b831 6cbf 300d 58be 8d13 adbe
00000080: be01 07bf df5c 4dbf 2793 6cbf 2935 b5be
00000090: fcef b2be 61b3 26bf 4b08 71bf 9082 71bf
000000a0: daa6 84be 208b f7be 5d9f 7abf e899 61bf
000000b0: 5c2b 70bf 45e1 02bf b981 59bf 077f 55bf
000000c0: 7337 8abf afe8 6fbf 2bf4 96c5 ed54 f9c4
000000d0: 898c 3ac3 ec9d 68c2 1f76 82c2 e04d b1c5
000000e0: edb7 c7c4 f4a8 0ec2 ee9b adc0 b5c3 12c2
000000f0: 7e67 e5c5 7c4d 04c5 d591 a9c3 426c 18c3
00000100: 2679 d4c3 4b75 25c6 f925 b6c5 00c2 3ac5
00000110: 4747 0ac5 d370 15c5 2175 4ec6 d078 1dc6
00000120: bf23 ecc5 c0d2 bdc5 98c4 a1c5 377d 2bbf
00000130: 20b2 55bf 4c6c 45bf f43c 8dbf f47c 57bf
00000140: 34eb 3fbf f5ca 59bf 7063 7bbf ffaf 60bf
00000150: 53ce 4abf 3710 5cbf b9d5 8ebf ab52 9ebf
00000160: d539 75bf d54e 6bbf 34cc afbf 5ab3 d4bf
00000170: a6a8 d0bf 2b30 a8bf 5b14 99bf 7077 e7bf
00000180: f6cf fbbf 0690 e9bf faf2 b8bf 466d abbf
00000190: 65ae 26be 0c38 a1bc 07c0 4ebe ee41 cebe
000001a0: 300a 81be a1e6 cbbe fd62 a1be 21d4 0bbf
000001b0: 320d a9be 26aa e2be 6126 41bf 72d8 ffbe
000001c0: 2001 c2be 4203 2ebe 0c36 34be a017 54bf
000001d0: b5a1 1ebf 4844 dbbe c44c 5abe cb11 05be
000001e0: 2043 20bf 2b52 1bbf 7e02 36be 209b 84bd
000001f0: 3e84 80bd 882e 52c6 1f8e 65c6 aa42 5ec6
00000200: 9810 46c6 baa6 2cc6 1f08 68c6 ddec 77c6
00000210: ca8b 68c6 ee46 44c6 5067 2cc6 17e5 6ac6
00000220: 23e0 73c6 6fe8 5bc6 7e19 36c6 3589 23c6
00000230: 33d8 69c6 9212 68c6 afec 48c6 b0b0 2dc6
00000240: 5de3 1ec6 72c0 5cc6 a9ad 51c6 3d83 38c6
00000250: a921 24c6 ddca 18c6 46b0 e2be 376d 9fbe
00000260: 3bc0 1bbd 5ac8 18be 5138 92bd d96d 5cbe
00000270: d206 08be 945a 48bd 61dd 5ebf ec43 07be
00000280: cb8b 63be ee86 a6bc b88d dcbf 1710 ddc0
00000290: e649 1abf 9981 14be feed 37be 7a67 acbd
000002a0: 2f4c 47be 8dce 37bd 5f58 0abe 0f8c 9bbd
000002b0: 261d 7ebd f134 61be 3e9b 25be df74 22be
000002c0: 4210 95be b04b d3be 5dbc 20bf 9a59 18bf
000002d0: 5b80 55bd 11c7 37be 617c 11bf ca3e 27bf
000002e0: 9eb7 17bf f530 2bbe 55cb 6dbe 48a8 21bf
000002f0: 0457 1dbf 7be0 28bf 379f b2be 4985 d8be
00000300: 5d37 58bf 890b 44bf f459 11bf 08fb 0fbf
00000310: c37d 3bbf 1683 88bf 09d2 63bf 731d 43bf
00000320: ff46 9abf 0d2f a5bf fc85 82bf 56a3 68bf
00000330: a320 41bf 36be b3bf 62f6 abbf 26b9 94bf
00000340: f7e1 9abf 19e4 82bf cb37 95bf 4e74 86bf
00000350: faa6 91bf 8bb7 80bf 04b6 42bf 8450 2fbf
00000360: 0259 32bf ed64 2abf 642d 48bf 04a0 07bf
00000370: 32f0 6cbe ea83 bfbe 5872 bcbe bc0c bebe
00000380: c33a 96be ca9d 29bf d3ca 02bf f877 ffbe
00000390: 7a9b c9be e328 a5bf cb24 38bf efc9 23bf
000003a0: e67d f3be 418a bebe 6241 dcc1 098e 4cbf
000003b0: 4cbf 1dbf e996 e9be 9534 cdbe 4d41 3ac2
000003c0: bbd9 40bf 09d4 05bf f667 c7be bc9e ebbd
000003d0: daf8 03c1 c775 25bf 5c9f d2be 9236 d4be
000003e0: a21f efbd fa69 23bf 8c14 4bbf cbf2 4dbf
000003f0: 433b 3abf 6e6e 1ebf 0df5 32bf 1411 8abf

conv1.0.bias f4 [16]
-0.14099994 -54.57694 -75.96455 -0.07184098 -56.817722 -137.55112 -0.14825064 -11.565156
-0.018941902 -0.4705457 -0.090409964 -0.18359622 -33.43257 -14.189325 -0.12828611 -0.13808896
00000000: 4a62 10be c94e 5ac2 d9ed 97c2 5d21 93bd
00000010: 5945 63c2 168d 09c3 04cf 17be e10a 39c1
00000020: 0c2c 9bbc 5eeb f0be dc28 b9bd a600 3cbe
00000030: f4ba 05c2 7a07 63c1 6f5d 03be 3167 0dbe

conv2.0.weight f4 [32, 16, 5, 5]
-0.156215 -0.17152815 -0.11662489 -0.09085927 -0.06334984 -0.21732195 -0.12967125 -0.080243275
-0.07773103 -0.15014884 -0.23018003 -0.09300927 -0.041092377 -0.11111925 -0.11256482 -0.15242532
-0.12501618 -0.07372727 -0.07596791 -0.063000426 -0.04744106 -0.090510026 -0.058097534 -0.06075838
-0.08650615 -0.70591724 -0.92081004 -1.0560769 -0.9302785 -0.8431302 -0.51914614 -0.7940442
-0.7908055 -0.6805228 -0.56556755 -0.45140177 -0.4785383 -0.47767866 -0.47302246 -0.5495194
-0.53706217 -0.58711106 -0.56878966 -0.52317816 -0.56367534 -0.6448741 -0.5714105 -0.5484983
-0.5726662 -0.4880607 -2.0409663 -1.8161924 -1.8129497 -1.7780778 -1.7387537 -1.5060675
-1.6269879 -1.7298265 -1.491781 -1.4523432 -0.87798977 -1.2265313 -1.3882774 -1.1953168
-1.157637 -0.7427434 -1.1409345 -1.2975504 -1.1382458 -1.1037146 -0.81785166 -1.0933334
-1.1360404 -1.1077186 -1.1994654 -1.0925499 -1.2135743 -1.1911372 -0.90675676 -0.8566005
-0.6678891 -0.8087602 -0.85061914 -0.7409452 -0.7585845 -0.56387573 -0.7304494 -0.7834791
-0.715772 -0.6746254 -0.6820829 -0.76237226 -0.851737 -0.6633424 -0.6183611 -0.5798112
-0.6205077 -0.6723853 -0.7184298 -0.76867306 -1.2646749 -0.78463644 -0.98070234 -0.8139733
-0.8435466 -0.9148924 -0.7600484 -1.0823262 -0.86957 -0.7789224 -0.63240594 -0.6753451
-0.87328386 -0.76847035 -0.61244816 -0.41224444 -0.49348667 -0.6917411 -0.59147763 -0.49335235
-0.32635847 -0.44682214 -0.6870903 -0.6196423 -0.5266855 -1.2668527 -1.1205751 -1.0689578
-0.8190602 -0.91132057 -0.92032146 -0.84820825 -0.9636221 -0.7619041 -0.6831674 -0.56202924
-0.49870735 -0.7127262 -0.6597247 -0.5850051 -0.40253335 -0.5200239 -0.6711825 -0.5473579
-0.5081081 -0.44892335 -0.49181762 -0.68347764 -0.6194805 -0.4795722 -0.1449383 -0.16076186
-0.1350978 -0.11346631 -0.080178656 -0.1407427 -0.096731864 -0.10695674 -0.058964647 -0.026448047
-0.091146216 -0.060110096 -0.084453866 -0.10941964 0.0051191305 -0.09192926 -0.14630742 -0.1066519
-0.06635334 -0.066973105 0.010594127 0.0065432508 -0.08469084 -0.09798427 -0.13764857 -0.10163432
-0.24062116 -0.15678456 -0.15913662 -0.07006878 -0.22499615 -0.24659199 -0.12614581 -0.16937202
-0.09959929 -0.2587994 -0.28855997 -0.06732861 -0.106327854 -0.16866222 -0.21859626 -0.21796505
-0.14110625 -0.056531172 -0.12309853 -0.1660113 -0.14125514 -0.05276246 -0.11943707 -0.12095253
-1.0903838 -0.88050807 -0.66563994 -0.73041135 -0.8393998 -1.2718165 -1.1242673 -0.9236683
-0.82089686 -0.7225901 -0.7985652 -0.7620553 -0.719696 -0.6344024 -0.50819325 -0.41945913
-0.5339432 -0.54005146 -0.4212583 -0.43837193 -0.4155499 -0.47390333 -0.6053024 -0.54319453
-0.4488578 -1.0094177 -0.82363534 -0.82855296 -0.6563064 -0.76428425 -0.8123848 -0.7047648
-0.7685971 -0.6041731 -0.6387784 -0.4519749 -0.50953364 -0.6364212 -0.5170773 -0.49298206
-0.32179883 -0.383925 -0.57857955 -0.4446311 -0.45513967 -0.34843713 -0.32368433 -0.4694869
-0.37818795 -0.46526864 -2.4174979 -1.8032833 -1.7898484 -1.9221473 -1.6610574 -2.4499848
00000000: d3f6 1fbe 13a5 2fbe 08d9 eebd 6d14 babd
00000010: 90bd 81bd a589 5ebe 8ac8 04be 9656 a4bd
00000020: 7231 9fbd 9ec0 19be 50b4 6bbe a57b bebd
00000030: 7b50 28bd 7d92 e3bd 6288 e6bd 6215 1cbe
00000040: 3e04 00be 53fe 96bd 1095 9bbd 5e06 81bd
00000050: 8f51 42bd 525d b9bd aef7 6dbd c7dd 78bd
00000060: 232a b1bd feb6 34bf 35ba 6bbf 872d 87bf
00000070: bb26 6ebf 61d7 57bf c3e6 04bf 7b46 4bbf
00000080: 3b72 4abf be36 2ebf 09c9 10bf 221e e7be
00000090: f902 f5be 4c92 f4be 0030 f2be 4ead 0cbf
000000a0: e87c 09bf e94c 16bf 339c 11bf 01ef 05bf
000000b0: 074d 10bf 7816 25bf f547 12bf 626a 0cbf
000000c0: 419a 12bf 18e3 f9be 319f 02c0 fe78 e8bf
000000d0: bc0e e8bf 0e98 e3bf 7b8f debf d2c6 c0bf
000000e0: 2441 d0bf f46a ddbf aef2 bebf 62e6 b9bf
000000f0: f0c3 60bf fafe 9cbf 13b3 b1bf 2400 99bf
00000100: 732d 94bf 6e24 3ebf 240a 92bf 2216 a6bf
00000110: 0ab2 91bf 8546 8dbf ba5e 51bf 59f2 8bbf
00000120: c669 91bf b9c9 8dbf 1588 99bf add8 8bbf
00000130: 6756 9bbf 2f77 98bf 3621 68bf 2c4a 5bbf
00000140: c8fa 2abf e90a 4fbf 2dc2 59bf 96ae 3dbf
00000150: 9832 42bf 295a 10bf bbfe 3abf 1692 48bf
00000160: d53c 37bf 40b4 2cbf fc9c 2ebf d42a 43bf
00000170: 700b 5abf cfd0 29bf ea4c 1ebf 826e 14bf
00000180: 98d9 1ebf 7121 2cbf 04eb 37bf c2c7 44bf
00000190: dee0 a1bf efdd 48bf 4f0f 7bbf 8e60 50bf
000001a0: acf2 57bf 6336 6abf 8892 42bf aa89 8abf
000001b0: 249c 5ebf 7567 47bf 5be5 21bf 6be3 2cbf
000001c0: 888f 5fbf 79ba 44bf 67c9 1cbf b411 d3be
000001d0: 49aa fcbe f215 31bf 146b 17bf ae98 fcbe
000001e0: 7518 a7be dfc5 e4be 26e5 2fbf e1a0 1ebf
000001f0: dcd4 06bf 3b28 a2bf 016f 8fbf 9cd3 88bf
00000200: eead 51bf 4e4c 69bf 309a 6bbf 2d24 59bf
00000210: f0af 76bf 260c 43bf 0fe4 2ebf 26e1 0fbf
00000220: 9256 ffbe 3975 36bf b8e3 28bf e5c2 15bf
00000230: da18 cebe 4920 05bf 9ed2 2bbf a61f 0cbf
00000240: 5f13 02bf 48d9 e5be 85cf fbbe 64f8 2ebf
00000250: 4696 1ebf 7d8a f5be b56a 14be c29e 24be
00000260: 1457 0abe 0661 e8bd b534 a4bd db1e 10be
00000270: 5b1b c6bd 230c dbbd ea84 71bd 93a9 d8bc
00000280: deaa babd 0136 76bd 26f6 acbd 6717 e0bd
00000290: 61be a73b 6845 bcbd 9dd1 15be 506c dabd
000002a0: 43e4 87bd 3229 89bd fd92 2d3c c468 d63b
000002b0: 6472 adbd faab c8bd bff3 0cbe a825 d0bd
000002c0: 6565 76be 228c 20be b6f4 22be 3880 8fbd
000002d0: 6465 66be 9c82 7cbe 5e2c 01be dc6f 2dbe
000002e0: b6fa cbbd 5b81 84be 22be 93be 95e3 89bd
000002f0: 6bc2 d9bd cab5 2cbe b3d7 5fbe 3b32 5fbe
00000300: 287e 10be 3b8d 67bd 151b fcbd defe 29be
00000310: 30a5 10be 731d 58bd 6c9b f4bd f6b5 f7bd
00000320: b291 8bbf fa68 61bf 6167 2abf 3dfc 3abf
00000330: e8e2 56bf e2ca a2bf fee7 8fbf 8775 6cbf
00000340: 4c26 52bf aafb 38bf c56e 4cbf 0e16 43bf
00000350: ff3d 38bf 3268 22bf f418 02bf 59c3 d6be
00000360: 80b0 08bf d040 0abf 2baf d7be 4972 e0be
00000370: f5c2 d4be 75a3 f2be 19f5 1abf cc0e 0bbf
00000380: b1d0 e5be 9934 81bf c4d9 52bf 0c1c 54bf
00000390: b203 28bf 22a8 43bf 73f8 4fbf 776b 34bf
000003a0: c8c2 44bf 17ab 1abf fb86 23bf 4169 e7be
000003b0: cc70 02bf 80ec 22bf 2e5f 04bf 2568 fcbe
000003c0: d1c2 a4be d191 c4be ca1d 14bf b0a6 e3be
000003d0: 1108 e9be 5a66 b2be f4b9 a5be 9660 f0be
000003e0: daa1 c1be b137 eebe 49b8 1ac0 fdd1 e6bf
000003f0: c119 e5bf ec08 f6bf 879d d4bf 8dcc 1cc0

conv2.0.bias f4 [32]
-0.032685503 -0.074046716 -0.11575584 -0.45962906 -2.2795749 -2.0969894 -2.06039 -0.47625655
-0.06785722 -0.41243893 -0.28610408 -0.48884457 -3.0841503 -0.44677466 -0.10805923 -1.2316189
-1.8998934 -1.1831565 -1.4636263 -1.1233265 -0.14518915 -2.4754798 -0.5735018 -3.7649484
-1.729021 -2.755488 -0.9686719 -0.021130212 -5.1528425 -1.3208536 -0.053379126 -0.0516146
00000000: 3ce1 05bd cea5 97bd 6611 edbd 8054 ebbe
00000010: 8ee4 11c0 1335 06c0 6edd 03c0 e6d7 f3be
00000020: baf8 8abd 322b d3be 3c7c 92be d649 fabe
00000030: b862 45c0 a6bf e4be 284e ddbd b0a5 9dbf
00000040: b52f f3bf ac71 97bf 1b58 bbbf 2ac9 8fbf
00000050: 77ac 14be 436e 1ec0 04d1 12bf eaf4 70c0
00000060: 8f50 ddbf ea59 30c0 e2fa 77bf 4419 adbc
00000070: 16e4 a4c0 bb11 a9bf 12a4 5abd d569 53bd

out.weight f4 [10, 1568]
0.012984188 0.12087377 0.5630638 1.110875 1.3813884 1.2321355 0.6153551 0.109990604
0.5201589 1.2757806 1.5831919 1.1628851 1.038505 0.68496 0.23907006 0.73621976
1.3861113 1.3613898 0.9842079 1.4310167 0.8592307 0.39768702 0.79448617 1.426058
1.1484897 1.2402923 1.6809182 1.0133517 0.46972728 0.80331177 1.5039248 1.6163162
1.6350057 1.2746377 0.5627884 0.27924407 0.6801053 1.1456051 0.9193608 0.6484348
0.3428455 0.15574045 0.051026646 0.15445566 0.35859555 0.5148126 0.4349202 0.25089353
0.10001642 0.06803287 0.25196064 0.43965253 0.5989677 0.62742776 0.37556753 0.014871427
0.12987553 0.49118274 0.79163694 1.1021926 1.1594388 0.9502107 0.4613624 0.2443536
0.7314116 0.9151767 1.0309036 1.2785119 1.238581 0.69952327 0.33446366 0.863229
1.2377976 1.1450421 0.9825368 0.94412154 0.64168215 0.5147246 1.1981874 1.4234972
1.2998242 0.86000055 0.87336624 0.5317825 0.39147064 1.1145109 1.1466821 1.157346
0.9491465 0.8299314 0.36214858 0.17563353 0.4429376 0.5610685 0.7805812 0.79130507
0.4439024 0.15983023 0.0702652 0.25747326 0.49217397 0.54863846 0.31619003 0.037022382
0.07910647 0.24881269 0.4865613 0.42084736 0.32138446 0.33375615 0.2325122 0.11762307
0.4532067 0.4185154 0.17459323 0.009795129 0.015258367 0.07744958 0.09454325 0.46100923
0.23016001 0.029231742 0.049214214 0.09413488 0.01881609 0.0702574 0.3699551 0.101876155
0.1521236 0.33736005 0.17757009 0.0016726933 -0.013413805 0.18661547 0.035048734 0.0034638003
0.05878494 0.028871788 0.009176161 0.012664873 0.028389802 0.008668718 -0.01398652 -0.005516171
0.020559283 0.0056512146 0.009990357 0.17170857 2.7434974 10.1026745 16.149435 15.27679
6.4181986 0.48190248 1.5426722 11.168339 27.305962 46.671383 58.428566 45.94919
14.698672 6.0142784 24.823812 44.53611 66.41007 76.281166 63.315365 29.04007
12.622992 40.702114 56.785187 61.670067 63.01367 53.59742 30.845781 16.482573
51.903248 67.97224 59.45948 48.717358 45.92752 28.453363 14.260576 48.353294
68.81301 66.717125 58.137695 45.217514 18.122551 7.1996775 26.648031 45.787384
50.57026 41.925472 20.249271 3.2828884 0.021568285 0.14372338 0.23392804 0.1836489
0.038071614 0.102674544 0.22127537 0.10712756 0.2293378 0.31331792 0.920444 1.0891861
0.66441673 0.30150762 0.24681656 0.13441797 0.17480442 0.6029951 0.686847 0.77218753
0.42589706 0.34786707 0.049597953 0.15172562 0.38156524 0.049055956 0.40083042 0.57761365
0.41736516 0.42262316 0.974376 0.51442343 0.3701363 0.6497788 0.62826806 0.026487578
0.29412797 1.1228837 0.92669326 0.5510567 0.62086844 0.31311426 0.02337243 0.025045086
0.0033050086 0.14620988 0.14639457 0.20663188 0.093251586 0.011047963 0.023179598 0.17785716
0.2644533 0.22494906 0.14959717 0.09591455 0.010955026 0.2632096 0.40789634 0.6713138
00000000: a2bb 543c ab8c f73d f324 103f 2731 8e3f
00000010: 56d1 b03f 9eb6 9d3f e987 1d3f c142 e13d
00000020: 2229 053f c74c a33f 08a6 ca3f 6bd9 943f
00000030: bbed 843f 8a59 2f3f c8ce 743e e678 3c3f
00000040: 186c b13f 0542 ae3f 0df5 7b3f 8e2b b73f
00000050: 8bf6 5b3f a29d cb3e 7263 4b3f 1289 b63f
00000060: b601 933f e6c1 9e3f 5428 d73f 82b5 813f
00000070: 1880 f03e d7a5 4d3f 9c80 c03f 73e3 ce3f
00000080: de47 d13f 5427 a33f e712 103f 14f9 8e3e
00000090: 621b 2e3f 30a3 923f 3b5b 6b3f d3ff 253f
000000a0: 7289 af3e 6d7a 1f3e 5101 513d a029 1e3e
000000b0: d699 b73e c2ca 033f dcad de3e 1e75 803e
000000c0: 69d5 cc3d d154 8b3d fc00 813e 231a e13e
000000d0: f255 193f 1b9f 203f 634a c03e 49a7 733c
000000e0: 17fe 043e 4e7c fb3e b8a8 4a3f a614 8d3f
000000f0: 7e68 943f 0241 733f b137 ec3e d537 7a3e
00000100: ca3d 3b3f 0549 6a3f a6f4 833f 47a6 a33f
00000110: d289 9e3f f513 333f d23e ab3e 93fc 5c3f
00000120: 2770 9e3f bd90 923f 8887 7b3f f3b1 713f
00000130: 4845 243f fec4 033f 345e 993f 2835 b63f
00000140: a460 a63f ff28 5c3f ee94 5f3f e622 083f
00000150: d76e c83e 4ba8 8e3f 7bc6 923f ea23 943f
00000160: 44fb 723f 6276 543f 8a6b b93e 47d9 333e
00000170: b8c8 e23e 2fa2 0f3f 2bd4 473f f892 4a3f
00000180: 2d47 e33e 89aa 233e 34e7 8f3d 89d3 833e
00000190: 3afe fb3e 9273 0c3f a9e3 a13e c8a4 173d
000001a0: 9302 a23d c1c8 7e3e 901e f93e 4e79 d73e
000001b0: 818c a43e 16e2 aa3e ae17 6e3e 5de4 f03d
000001c0: b50a e83e a747 d63e 91c8 323e c07b 203c
000001d0: 3bfe 793c e39d 9e3d e49f c13d 6709 ec3e
000001e0: 11af 6b3e 6877 ef3c d894 493d cac9 c03d
000001f0: 3324 9a3c 1de3 8f3d c16a bd3e 72a4 d03d
00000200: 4ac6 1b3e 75ba ac3e efd4 353e 463e db3a
00000210: 93c5 5bbc 2018 3f3e 438f 0f3d ed00 633b
00000220: 7ac8 703d 8784 ec3c 9c57 163c 5480 4f3c
00000230: bb91 e83c 3d07 0e3c b727 65bc ffc0 b4bb
00000240: f16b a83c d32d b93b 98ae 233c 5fd4 2f3e
00000250: 7695 2f40 8ea4 2141 0b32 8141 bb6d 7441
00000260: e261 cd40 ecbb f63e 4876 c53f 84b1 3241
00000270: 9c72 da41 7faf 3a42 dab6 6942 f8cb 3742
00000280: c32d 6b41 f874 c040 2b97 c641 fa24 3242
00000290: f5d1 8442 f58f 9842 ef42 7d42 1052 e841
000002a0: c6f7 4941 f7ce 2242 0824 6342 26ae 7642
000002b0: 000e 7c42 c263 5642 29c4 f641 4fdc 8341
000002c0: ed9c 4f42 c9f1 8742 82d6 6d42 93de 4242
000002d0: c8b5 3742 7da0 e341 522b 6441 c669 4142
000002e0: 43a0 8942 2b6f 8542 008d 6842 bcde 3442
000002f0: fcfa 9041 c263 e640 2b2f d541 4826 3742
00000300: f247 4a42 afb3 2742 82fe a141 d81a 5240
00000310: f9af b03c 392c 133e d58a 6f3e 750e 3c3e
00000320: fbf0 1b3d 0847 d23d 0396 623e b265 db3d
00000330: 87d7 6a3e 356b a03e 38a2 6b3f 736a 8b3f
00000340: 3717 2a3f 355f 9a3e 7bbd 7c3e dda4 093e
00000350: eeff 323e e35d 1a3f 34d5 2f3f 15ae 453f
00000360: 2e0f da3e a21b b23e 3927 4b3d f65d 1b3e
00000370: 855c c33e e6ee 483d a539 cd3e 7dde 133f
00000380: e3b0 d53e 1062 d83e b570 793f 41b1 033f
00000390: 8182 bd3e e757 263f 2dd6 203f 7afc d83c
000003a0: f197 963e a7ba 8f3f c53b 6d3f 0d12 0d3f
000003b0: 3cf1 1e3f 8350 a03e 8a77 bf3c 5a2b cd3c
000003c0: d898 583b 0bb8 153e 75e8 153e 4f97 533e
000003d0: b0fa be3d 8402 353c 24e3 bd3c 3020 363e
000003e0: 6c66 873e 0c59 663e 0030 193e d96e c43d
000003f0: b67c 333c 69c3 863e cad7 d03e 39db 2b3f

out.bias f4 [10]
-0.0023744544 0.10459424 -0.0006597917 0.029896123 -0.037594747 -0.106645 -0.05716549 0.055768073
-0.018520296 -0.009166395
00000000: bc9c 1bbb 8135 d63d dff5 2cba b7e8 f43c
00000010: f3fc 19bd b268 dabd 5c26 6abd 106d 643d
00000020: e0b7 97bc a62e 16bc
